…
"False"" [Events with negative weights are ignored in the training (but are included for testing and performance evaluation)]; : InputLayout: ""0|0|0"" [The Layout of the input]; : BatchLayout: ""0|0|0"" [The Layout of the batch]; : RandomSeed: ""0"" [Random seed used for weight initialization and batch shuffling]; : ValidationSize: ""20%"" [Part of the training data to use for v",MatchSource.WIKI,doc/master/TMVA__CNN__Classification_8C.html,root-project,root,v6-32-06,https://root.cern,https://root.cern/doc/master/TMVA__CNN__Classification_8C.html
Deployability,configurat,configuration,"hape) (None, 16, 16, 1) 0 ; ; conv2d (Conv2D) (None, 16, 16, 10) 100 ; ; batch_normalization (Batch (None, 16, 16, 10) 40 ; Normalization) ; ; conv2d_1 (Conv2D) (None, 16, 16, 10) 910 ; ; max_pooling2d (MaxPooling2 (None, 15, 15, 10) 0 ; D) ; ; flatten (Flatten) (None, 2250) 0 ; ; dense (Dense) (None, 256) 576256 ; ; dense_1 (Dense) (None, 2) 514 ; ; =================================================================; Total params: 577820 (2.20 MB); Trainable params: 577800 (2.20 MB); Non-trainable params: 20 (80.00 Byte); _________________________________________________________________; Factory : Booking method: ␛[1mPyKeras␛[0m; : ; : Setting up tf.keras; : Using TensorFlow version 2; : Use Keras version from TensorFlow : tf.keras; : Appl
…
 this Keras; : interface, you have to generate a model with Keras first. Then,; : this model can be loaded and trained in TMVA.; : ; : ; : <Suppress this message by specifying ""!H"" in the booking option>; : ␛[1m================================================================␛[0m; : ; : Split TMVA training data in 11200 training events and 2800 validation events; : Training Model Summary; Model: ""sequential""; _________________________________________________________________; Layer (type) Output Shape Param # ; =================================================================; dense (Dense) (None, 64) 512 ; ; dense_1 (Dense) (None, 64) 4160 ; ; dense_2 (Dense) (None, 64) 4160 ; ; dense_3 (Dense) (None, 64) 4160 ; ; dense_4 (Dense) (None, 2) 130 ; ; =================================================================; Total params: 13122 (51.26 KB); Trainable params: 13122 (51.26 KB); Non-trai",MatchSource.WIKI,doc/master/TMVA__Higgs__Classification_8C.html,root-project,root,v6-32-06,https://root.cern,https://root.cern/doc/master/TMVA__Higgs__Classification_8C.html
Security,validat,validation,"ic help message]; : InputLayout: ""1|1|7"" [The
…
 first. Then,; : this model can be loaded and trained in TMVA.; : ; : ; : <Suppress this message by specifying ""!H"" in the booking option>; : ␛[1m================================================================␛[0m; : ; : Split TMVA training data in 2560 training events and 640 validation events; : Training Model Summary; saved recurrent model model_LSTM.h5; Booking Keras model LSTM; Model: ""sequential""; _________________________________________________________________; Layer (type) Output Shape Param # ; =================================================================; reshape (Reshape) (None, 10, 30) 0 ; ; lstm (LSTM) (None, 10, 10) 1640 ; ; flatten (Flatten) (None, 100) 0 ; ; dense (Dense) (None, 64) 6464 ; ; dense_1 (Dense) (None, 2) 130 ; ; =================================================================; Total param",MatchSource.WIKI,doc/master/TMVA__RNN__Classification_8py.html,root-project,root,v6-32-06,https://root.cern,https://root.cern/doc/master/TMVA__RNN__Classification_8py.html
Security,validat,validation,"ollowing options are set:; : - By User:; : V: ""True"" [Verbose output (short form of ""VerbosityLevel"" below - o
…
or(ROOT.kRed); curve1.Draw(""AC""); ; r2,curve2 = MakeROCCurve(hs2,hb2); curve2.SetLineColor(ROOT.kBlue); curve2.Draw(""C""); ; r3,curve3 = MakeROCCurve(hs3,hb3); curve3.SetLineColor(ROOT.kGreen); curve3.Draw(""C""); ; c2.Draw(); ROOT::RDataFrameROOT's RDataFrame offers a modern, high-level interface for analysis of data stored in TTree ,...Definition RDataFrame.hxx:41; size of data 10000; Model: ""sequential""; _________________________________________________________________; Layer (type) Output Shape Param # ; =================================================================; dense (Dense) (None, 64) 512 ; ; dense_1 (Dense) (None, 64) 4160 ; ; dense_2 (Dense) (None, 64) 4160 ; ; dense_3 (Dense) (None, 64) 4160 ; ; dense_4 (Dense) (None, 1) 65 ; ; =================================================================; Total params: 13057 (51.00 KB); Trainable params: 13057 (51.00 KB); Non-trainable params: 0 (0.00 Byte); _________________________________________________________________; Epoch 1/10; ; 1/200 [..............................] - ETA: 3:35 - loss: 0.7076 - accuracy: 0.3800␈␈␈␈␈␈␈␈␈␈␈␈␈␈␈␈␈␈␈␈␈␈␈␈␈␈␈␈␈␈␈␈␈␈␈␈␈␈␈␈␈␈␈␈␈␈␈␈␈␈␈␈␈␈␈␈␈␈␈␈␈␈␈␈␈␈␈␈␈␈␈␈␈␈␈␈␈␈␈␈␈␈␈␈␈␈; 19/200 [=>............................] - ETA: 0s - loss: 0.6900 - accuracy: 0.5526 ␈␈␈␈␈␈␈␈␈␈␈␈␈␈␈",MatchSource.WIKI,doc/master/TMVA__SOFIE__Models_8py.html,root-project,root,v6-32-06,https://root.cern,https://root.cern/doc/master/TMVA__SOFIE__Models_8py.html
…
