…
0"" [The Layout of the batch]; : RandomSeed: ""0"" [Random seed used for weight initialization and batch shuffling]; : ValidationSize: ""20%"" [Part of the training data to use for validation. Specify as 0.2 or 20% to use a fifth of the data set as validation set. Specify as 100 to use exactly 100 events. (Default: 20%)]; : Will now use the CPU architecture with BLAS and IMT support !; Model: ""sequential""; _________________________________________________________________; Layer (type) Output Shape Param # ; =================================================================; reshape (Reshape) (None, 16, 16, 1) 0 ; ; conv2d (Conv2D) (None, 16, 16, 10) 100 ; ; batch_normalization (Batch (None, 16, 16, 10) 40 ; Normalization) ; ; conv2d_1 (Conv2D) (None, 16, 16, 10) 910 ; ; max_pooling2d (MaxPooling2 (None, 15, 15, 10) 0 ; D) ; ; flatten (Flatten) (None, 2250) 0 ; ; dense (Dense) (None, 256) 576256 ; ; dense_1 (Dense) (None, 2) 514 ; ; =================================================================; Total params: 577820 (2.20 MB); Trainable params: 577800 (2.20 MB); Non-trainable params: 20 (80.00 Byte); _________________________________________________________________; Factory : Booking method: ␛[1mPyKeras␛[0m; : ; : ",MatchSource.WIKI,root-project,root,v6-32-06,https://root.cern/doc/master/TMVA__CNN__Classification_8C.html:7497,validat,validation,7497,doc/master/TMVA__CNN__Classification_8C.html,https://root.cern,https://root.cern/doc/master/TMVA__CNN__Classification_8C.html,1,['validat'],['validation']
…
