…
 this Keras; : interface, you have to generate a model with Keras first. Then,; : this model can be loaded and trained in TMVA.; : ; : ; : <Suppress this message by specifying ""!H"" in the booking option>; : ␛[1m================================================================␛[0m; : ; : Split TMVA training data in 11200 training events and 2800 validation events; : Training Model Summary; Model: ""sequential""; _________________________________________________________________; Layer (type) Output Shape Param # ; =================================================================; dense (Dense) (None, 64) 512 ; ; dense_1 (Dense) (None, 64) 4160 ; ; dense_2 (Dense) (None, 64) 4160 ; ; dense_3 (Dense) (None, 64) 4160 ; ; dense_4 (Dense) (None, 2) 130 ; ; =================================================================; Total params: 13122 (51.26 KB); Trainable params: 13122 (51.26 KB); Non-trai",MatchSource.WIKI,root-project,root,v6-32-06,https://root.cern/doc/master/TMVA__Higgs__Classification_8C.html:26943,wrap,wraps,26943,doc/master/TMVA__Higgs__Classification_8C.html,https://root.cern,https://root.cern/doc/master/TMVA__Higgs__Classification_8C.html,1,['wrap'],['wraps']
…
1m================================================================␛[0m; : ; : Split TMVA training data in 1280 training events and 320 validation events; : Training Model Summary; custom objects for loading model : {'optimizer': <class 'torch.optim.adam.Adam'>, 'criterion': BCELoss(), 'train_func': <function fit at 0x7fe43c5d1b80>, 'predict_func': <function predict at 0x7fe43c5d1ca0>}; Model: ""sequential""; _________________________________________________________________; Layer (type) Output Shape Param # ; =================================================================; reshape (Reshape) (None, 16, 16, 1) 0 ; ; conv2d (Conv2D) (None, 16, 16, 10) 100 ; ; batch_normalization (Batch (None, 16, 16, 10) 40 ; Normalization) ; ; conv2d_1 (Conv2D) (None, 16, 16, 10) 910 ; ; max_pooling2d (MaxPooling2 (None, 15, 15, 10) 0 ; D) ; ; flatten (Flatten) (None, 2250) 0 ; ; dense (Dense) (None, 256) 576256 ; ; dense_1 (Dense) (None, 2) 514 ; ; =================================================================; Total params: 577820 (2.20 MB); Trainable params: 577800 (2.20 MB); N",MatchSource.WIKI,root-project,root,v6-32-06,https://root.cern/doc/master/TMVA__CNN__Classification_8C.html:16482,message,message,16482,doc/master/TMVA__CNN__Classification_8C.html,https://root.cern,https://root.cern/doc/master/TMVA__CNN__Classification_8C.html,1,['message'],['message']
…
or(ROOT.kRed); curve1.Draw(""AC""); ; r2,curve2 = MakeROCCurve(hs2,hb2); curve2.SetLineColor(ROOT.kBlue); curve2.Draw(""C""); ; r3,curve3 = MakeROCCurve(hs3,hb3); curve3.SetLineColor(ROOT.kGreen); curve3.Draw(""C""); ; c2.Draw(); ROOT::RDataFrameROOT's RDataFrame offers a modern, high-level interface for analysis of data stored in TTree ,...Definition RDataFrame.hxx:41; size of data 10000; Model: ""sequential""; _________________________________________________________________; Layer (type) Output Shape Param # ; =================================================================; dense (Dense) (None, 64) 512 ; ; dense_1 (Dense) (None, 64) 4160 ; ; dense_2 (Dense) (None, 64) 4160 ; ; dense_3 (Dense) (None, 64) 4160 ; ; dense_4 (Dense) (None, 1) 65 ; ; =================================================================; Total params: 13057 (51.00 KB); Trainable params: 13057 (51.00 KB); Non-trainable params: 0 (0.00 Byte); _________________________________________________________________; Epoch 1/10; ; 1/200 [..............................] - ETA: 3:35 - loss: 0.7076 - accuracy: 0.3800␈␈␈␈␈␈␈␈␈␈␈␈␈␈␈␈␈␈␈␈␈␈␈␈␈␈␈␈␈␈␈␈␈␈␈␈␈␈␈␈␈␈␈␈␈␈␈␈␈␈␈␈␈␈␈␈␈␈
…
