…
 first. Then,; : this model can be loaded and trained in TMVA.; : ; : ; : <Suppress this message by specifying ""!H"" in the booking option>; : ␛[1m================================================================␛[0m; : ; : Split TMVA training data in 2560 training events and 640 validation events; : Training Model Summary; saved recurrent model model_LSTM.h5; Booking Keras model LSTM; Model: ""sequential""; _________________________________________________________________; Layer (type) Output Shape Param # ; =================================================================; reshape (Reshape) (None, 10, 30) 0 ; ; lstm (LSTM) (None, 10, 10) 1640 ; ; flatten (Flatten) (None, 100) 0 ; ; dense (Dense) (None, 64) 6464 ; ; dense_1 (Dense) (None, 2) 130 ; ; =================================================================; Total param",MatchSource.WIKI,root-project,root,v6-32-06,https://root.cern/doc/master/TMVA__RNN__Classification_8py.html:20594,predict,predictions,20594,doc/master/TMVA__RNN__Classification_8py.html,https://root.cern,https://root.cern/doc/master/TMVA__RNN__Classification_8py.html,1,['predict'],['predictions']
Safety,".998; p.d
…
 this Keras; : interface, you have to generate a model with Keras first. Then,; : this model can be loaded and trained in TMVA.; : ; : ; : <Suppress this message by specifying ""!H"" in the booking option>; : ␛[1m================================================================␛[0m; : ; : Split TMVA training data in 11200 training events and 2800 validation events; : Training Model Summary; Model: ""sequential""; _________________________________________________________________; Layer (type) Output Shape Param # ; =================================================================; dense (Dense) (None, 64) 512 ; ; dense_1 (Dense) (None, 64) 4160 ; ; dense_2 (Dense) (None, 64) 4160 ; ; dense_3 (Dense) (None, 64) 4160 ; ; dense_4 (Dense) (None, 2) 130 ; ; =================================================================; Total params: 13122 (51.26 KB); Trainable params: 13122 (51.26 KB); Non-trai",MatchSource.WIKI,root-project,root,v6-32-06,https://root.cern/doc/master/TMVA__Higgs__Classification_8C.html:26966,predict,predictions,26966,doc/master/TMVA__Higgs__Classification_8C.html,https://root.cern,https://root.cern/doc/master/TMVA__Higgs__Classification_8C.html,1,['predict'],['predictions']
…
