…
Source.WIKI,root-project,root,v6-32-06,https://root.cern/root/html602/TFile.html:48616,cache,cache,48616,root/html602/TFile.html,https://root.cern,https://root.cern/root/html602/TFile.html,2,['cache'],['cache']
Performance,"time9[24]; vars_time9[25]; vars_time9[26]; vars_time9[27]; vars_time9[28]; vars_time9[29]; prepared DATA LOADER ; Building recurrent keras model using a LSTM layer; Model: ""sequential""; _________________________________________________________________; Layer (type) Output Shape Param # ; =================================================================; reshape (Reshape) (None, 10, 30) 0 ; ; lstm (LSTM) (None, 10, 10) 1640 ; ; flatten (Flatten) (None, 100) 0 ; ; dense (Dense) (None, 64) 6464 ; ; dense_1 (Dense) (None, 2) 130 ; ; =================================================================; Total params: 8234 (32.16 KB); Trainable params: 8234 (32.16 KB); Non-trainable params: 0 (0.00 Byte); _________________________________________________________________; Factory : Booking method: ␛[1mPyKeras_LSTM␛[0m; : ; : Setting up tf.keras; : Using TensorFlow version 2; : Use Keras version from TensorFlow : tf.keras; : App
…
