…
 this Keras; : interface, you have to generate a model with Keras first. Then,; : this model can be loaded and trained in TMVA.; : ; : ; : <Suppress this message by specifying ""!H"" in the booking option>; : ␛[1m================================================================␛[0m; : ; : Split TMVA training data in 11200 training events and 2800 validation events; : Training Model Summary; Model: ""sequential""; _________________________________________________________________; Layer (type) Output Shape Param # ; =================================================================; dense (Dense) (None, 64) 512 ; ; dense_1 (Dense) (None, 64) 4160 ; ; dense_2 (Dense) (None, 64) 4160 ; ; dense_3 (Dense) (None, 64) 4160 ; ; dense_4 (Dense) (None, 2) 130 ; ; =================================================================; Total params: 13122 (51.26 KB); Trainable params: 13122 (51.26 KB); Non-trainable params: 0 (0.00 Byte); _________________________________________________________________; : Option SaveBestOnly: Only model weights with smallest validation loss will be stored; Epoch 1/20; ; 1/",MatchSource.WIKI,root-project,root,v6-32-06,https://root.cern/doc/master/TMVA__Higgs__Classification_8py.html:26780,load,loaded,26780,doc/master/TMVA__Higgs__Classification_8py.html,https://root.cern,https://root.cern/doc/master/TMVA__Higgs__Classification_8py.html,1,['load'],['loaded']
…
