…
1m================================================================␛[0m; : ; : Split TMVA training data in 1280 training events and 320 validation events; : Training Model Summary; custom objects for loading model : {'optimizer': <class 'torch.optim.adam.Adam'>, 'criterion': BCELoss(), 'train_func': <function fit at 0x7fe43c5d1b80>, 'predict_func': <function predict at 0x7fe43c5d1ca0>}; Model: ""sequential""; _________________________________________________________________; Layer (type) Output Shape Param # ; =================================================================; reshape (Reshape) (None, 16, 16, 1) 0 ; ; conv2d (Conv2D) (None, 16, 16, 10) 100 ; ; batch_normalization (Batch (None, 16, 16, 10) 40 ; Normalization) ; ; conv2d_1 (Conv2D) (None, 16, 16, 10) 910 ; ; max_pooling2d (MaxPooling2 (None, 15, 15, 10) 0 ; D) ; ; flatten (Flatten) (None, 2250) 0 ; ; dense (Dense) (None, 256) 576256 ; ; dense_1 (Dense) (None, 2) 514 ; ; =================================================================; Total params: 577820 (2.20 MB); Trainable params: 577800 (2.20 MB); N",MatchSource.WIKI,root-project,root,v6-32-06,https://root.cern/doc/master/TMVA__CNN__Classification_8C.html:16736,load,loading,16736,doc/master/TMVA__CNN__Classification_8C.html,https://root.cern,https://root.cern/doc/master/TMVA__CNN__Classification_8C.html,2,"['load', 'optimiz']","['loading', 'optimizer']"
…
 first. Then,; : this model can be loaded and trained in TMVA.; : ; : ; : <Suppress this message by specifying ""!H"" in the booking option>; : ␛[1m================================================================␛[0m; : ; : Split TMVA training data in 2560 training events and 640 validation events; : Training Model Summary; saved recurrent model model_LSTM.h5; Booking Keras model LSTM; Model: ""sequential""; _________________________________________________________________; Layer (type) Output Shape Param # ; =================================================================; reshape (Reshape) (None, 10, 30) 0 ; ; lstm (LSTM) (None, 10, 10) 1640 ; ; flatten (Flatten) (None, 100) 0 ; ; dense (Dense) (None, 64) 6464 ; ; dense_1 (Dense) (None, 2) 130 ; ; =================================================================; Total params: 8234 (32.16 KB); Trainable params: 8234 (32.16 KB); Non-trainable params: 0 (0.00 Byte); _________________________________________________________________; : Option SaveBestOnly: Only model weights",MatchSource.WIKI,root-project,root,v6-32-06,https://root.cern/doc/master/TMVA__RNN__Classification_8py.html:20848,load,loaded,20848,doc/master/TMVA__RNN__Classification_8py.html,https://root.cern,https://root.cern/doc/master/TMVA__RNN__Classification_8py.html,1,['load'],['loaded']
…
