…
0"" [The Layout of the batch]; : RandomSeed: ""0"" [Random seed used for weight initialization and batch shuffling]; : ValidationSize: ""20%"" [Part of the training data to use for validation. Specify as 0.2 or 20% to use a fifth of the data set as validation set. Specify as 100 to use exactly 100 events. (Default: 20%)]; : Will now use the CPU architecture with BLAS and IMT support !; Model: ""sequential""; _________________________________________________________________; Layer (type) Output Shape Param # ; =================================================================; reshape (Reshape) (None, 16, 16, 1) 0 ; ; conv2d (Conv2D) (None, 16, 16, 10) 100 ; ; batch_normalization (Batch (None, 16, 16, 10) 40 ; Normalization) ; ; conv2d_1 (Conv2D) (None, 16, 16, 10) 910 ; ; max_pooling2d (MaxPooling2 (None, 15, 15, 10) 0 ; D) ; ; flatten (Flatten) (None, 2250) 0 ; ; dense (Dense) (None, 256) 576256 ; ; dense_1 (Dense) (None, 2",MatchSource.WIKI,root-project,root,v6-32-06,https://root.cern/doc/master/TMVA__CNN__Classification_8C.html:7207,perform,performance,7207,doc/master/TMVA__CNN__Classification_8C.html,https://root.cern,https://root.cern/doc/master/TMVA__CNN__Classification_8C.html,1,['perform'],['performance']
Performance," mg_connection fc;; 16855 if (!dom_ctx) {; 16856 dom_ctx = &(ph
…
1m================================================================␛[0m; : ; : Split TMVA training data in 1280 training events and 320 validation events; : Training Model Summary; custom objects for loading model : {'optimizer': <class 'torch.optim.adam.Adam'>, 'criterion': BCELoss(), 'train_func': <function fit at 0x7fe43c5d1b80>, 'predict_func': <function predict at 0x7fe43c5d1ca0>}; Model: ""sequential""; _________________________________________________________________; Layer (type) Output Shape Param # ; =================================================================; reshape (Reshape) (None, 16, 16, 1) 0 ; ; conv2d (Conv2D) (None, 16, 16, 10) 100 ; ; batch_normalization (Batch (None, 16, 16, 10) 40 ; Normalization) ; ; conv2d_1 (Conv2D) (None, 16, 16, 10) 910 ; ; max_pooling2d (MaxPooling2 (None, 15, 15, 10) 0 ; D) ; ; flatten (Flatten) (None, 2250) 0 ; ; dense (Dense) (No",MatchSource.WIKI,root-project,root,v6-32-06,https://root.cern/doc/master/TMVA__CNN__Classification_8C.html:16428,load,loaded,16428,doc/master/TMVA__CNN__Classification_8C.html,https://root.cern,https://root.cern/doc/master/TMVA__CNN__Classification_8C.html,1,['load'],['loaded']
Performance," new TH2F(""hcol1"",""Option COLor combined with POL"",40,-4,4,40,-4,4);; float px, 
…
