…
time9[10]; vars_time9[11]; vars_time9[12]; vars_time9[13]; vars_time9[14]; vars_time9[15]; vars_time9[16]; vars_time9[17]; vars_time9[18]; vars_time9[19]; vars_time9[20]; vars_time9[21]; vars_time9[22]; vars_time9[23]; vars_time9[24]; vars_time9[25]; vars_time9[26]; vars_time9[27]; vars_time9[28]; vars_time9[29]; prepared DATA LOADER ; Building recurrent keras model using a LSTM layer; Model: ""sequential""; _________________________________________________________________; Layer (type) Output Shape Param # ; =================================================================; reshape (Reshape) (None, 10, 30) 0 ; ; lstm (LSTM) (None, 10, 10) 1640 ; ; flatten (Flatten) (None, 100) 0 ; ; dense (Dense) (None, 64) 6464 ; ; dense_1 (Dense) (None, 2) 130 ; ; =================================================================; Total params: 8234 (32.",MatchSource.WIKI,root-project,root,v6-32-06,https://root.cern/doc/master/TMVA__RNN__Classification_8py.html:11381,LOAD,LOADER,11381,doc/master/TMVA__RNN__Classification_8py.html,https://root.cern,https://root.cern/doc/master/TMVA__RNN__Classification_8py.html,1,['LOAD'],['LOADER']
Performance,"me::fMap
…
