…
root,v6-32-06,https://root.cern/doc/master/TMVAMulticlass_8C.html:20415,perform,performance,20415,doc/master/TMVAMulticlass_8C.html,https://root.cern,https://root.cern/doc/master/TMVAMulticlass_8C.html,1,['perform'],['performance']
Performance," : variable 'm_wbb'; : Input : variable 'm_wwbb' <---> Output : variable 'm_wwbb'; : Will now use the CPU architecture with BLAS and IMT support !; Model: ""sequential""; _________________________________________________________________; Layer (type) Output Shape Param # ; =================================================================; dense (Dense) (None, 64) 512 ; ; dense_1 (Dense) (None, 64) 4160 ; ; dense_2 (Dense) (None, 64) 4160 ; ; dense_3 (Dense) (None, 64) 4160 ; ; dense_4 (Dense) (None, 2) 130 ; ; =================================================================; Total params: 13122 (51.26 KB); Trainable params: 13122 (51.26 KB); Non-trainable params: 0 (0.00 Byte); _________________________________________________________________; (TString) ""python3""[7]; Factory : Booking method: ␛[1mPyKeras␛[0m; : ; : Setting up tf.keras; : Using TensorFlow version 2; : Use Keras version from Tenso
…
