…
; : Creating xml weight file: ␛[0;36mdataset/weights/TMVAClassification_TMVA_DNN.weights.xml␛[0m; : Creating standalone class: ␛[0;36mdataset/weights/TMVAClassification_TMVA_DNN.class.C␛[0m; Factory : Training finished; : ; Factory : Train method: PyKeras_LSTM for Classification; : ; : Split TMVA training data in 2560 training events and 640 validation events; : Training Model Summary; Model: ""sequential""; _________________________________________________________________; Layer (type) Output Shape Param # ; =================================================================; reshape (Reshape) (None, 10, 30) 0 ; ; lstm (LSTM) (None, 10, 10) 1640 ; ; flatten (Flatten) (None, 100) 0 ; ; dense (Dense) (None, 64) 6464 ; ; dense_1 (Dense) (None, 2) 130 ; ; =================================================================; Total params: 8234 (32.16 KB); Trainable params: 8234 (32.16 KB); Non-trainable params: 0 (0.00 Byte); _________________________________________________________________; : Option SaveBestOnly: Only model weights with smallest validation loss will be stored; Epoch 1/20; ; 1/26 [>.............................] - ETA: 44s - loss:
…
