…
ning (but are included for testing and performance evaluation)]; : BatchLayout: ""0|0|0"" [The Layout of the batch]; : ValidationSize: ""20%"" [Part of the training data to use for validation. Specify as 0.2 or 20% to use a fifth of the data set as validation set. Specify as 100 to use exactly 100 events. (Default: 20%)]; : Will now use the CPU architecture with BLAS and IMT support !; Model: ""sequential""; _________________________________________________________________; Layer (type) Output Shape Param # ; =================================================================; reshape (Reshape) (None, 10, 30) 0 ; ; lstm (LSTM) (None, 10, 10) 1640 ; ; flatten (Flatten) (None, 100) 0 ; ; dense (Dense) (None, 64) 6464 ; ; dense_1 (Dense) (None, 2) 130 ; ; =================================================================; Total params: 8234 (32.16 KB); Trainable params: 8234 (32.16 KB); Non-trainable params: 0 (0.00 Byte); ________________________________________________",MatchSource.WIKI,root-project,root,v6-32-06,https://root.cern/doc/master/TMVA__RNN__Classification_8C.html:10736,perform,performance,10736,doc/master/TMVA__RNN__Classification_8C.html,https://root.cern,https://root.cern/doc/master/TMVA__RNN__Classification_8C.html,1,['perform'],['performance']
…
