…
-> Output : variable 'm_jjj'; : Input : variable 'm_lv' <---> Output : variable 'm_lv'; : Input : variable 'm_jlv' <---> Output : variable 'm_jlv'; : Input : variable 'm_bb' <---> Output : variable 'm_bb'; : Input : variable 'm_wbb' <---> Output : variable 'm_wbb'; : Input : variable 'm_wwbb' <---> Output : variable 'm_wwbb'; : Will now use the CPU architecture with BLAS and IMT support !; Model: ""sequential""; _________________________________________________________________; Layer (type) Output Shape Param # ; =================================================================; dense (Dense) (None, 64) 512 ; ; dense_1 (Dense) (None, 64) 4160 ; ; dense_2 (Dense) (None, 64) 4160 ; ; dense_3 (Dense) (None, 64) 4160 ; ; dense_4 (Dense) (None, 2) 130 ; ; =================================================================; Total params: 13122 (51.26 KB); Trainable params: 13122 (51.26 KB); Non-trainable params: 0 (0.00 Byte); _________________________________________________________________; (TString) ""python3""[7]; Factory : Booking method: ␛[1mPyKeras␛[0m; : ; : Setting up tf.keras; : Using TensorFlow version 2; : Use Keras version from Tenso
…
d entry: TLegendEntry *le = leg->AddEntry(h1,""Histogram filled with random numbers"",""f"");; le->SetTextColor(kBlue);; TAttText::SetTextColorvirtual void SetTextColor(Color_t tcolor=1)Set the text color.Definition TAttText.h:44; TLegendEntryStorage class for one entry of a TLegend.Definition TLegendEntry.h:25; leglegDefinition legend1",MatchSource.WIKI,root-project,root,v6-32-06,https://root.cern/doc/master/classTLegend.html:4809,inherit,inherits,4809,doc/master/classTLegend.html,https://root.cern,https://root.cern/doc/master/classTLegend.html,1,['inherit'],['inherits']
Modifiability,"hape) (None, 16, 16, 1) 0 ; ; conv2d (Conv2D) (None, 16, 16, 10) 100 ; ; batch_normalization (Batch (None, 16, 16, 10) 40 ; Normalization) ; ; conv2d_1 (Conv2D) (None, 16, 16, 10) 910 ; ; max_pooling2d (MaxPooling2 (None, 15, 15, 10) 0 ; D) ; ; flatten (Flatten) (None, 2250) 0 ; ; dense (Dense) (None, 256) 576256 ; ; dense_1 (Dense) (None, 2) 514 ; ; =================================================================; Total params: 577820 (2.20 MB); Trainable params: 577800 (2.20 MB); Non-trainable params: 20 (80.00 Byte); _________________________________________________________________; Factory : Booking method: ␛[1mPyKeras␛[0m; : ; : Setting up tf.keras; : Using TensorFlow version 2; : Use Keras version from TensorFlow : tf.keras; : Appl
…
