…
or(ROOT.kRed); curve1.Draw(""AC""); ; r2,curve2 = MakeROCCurve(hs2,hb2); curve2.SetLineColor(ROOT.kBlue); curve2.Draw(""C""); ; r3,curve3 = MakeROCCurve(hs3,hb3); curve3.SetLineColor(ROOT.kGreen); curve3.Draw(""C""); ; c2.Draw(); ROOT::RDataFrameROOT's RDataFrame offers a modern, high-level interface for analysis of data stored in TTree ,...Definition RDataFrame.hxx:41; size of data 10000; Model: ""sequential""; _________________________________________________________________; Layer (type) Output Shape Param # ; =================================================================; dense (Dense) (None, 64) 512 ; ; dense_1 (Dense) (None, 64) 4160 ; ; dense_2 (Dense) (None, 64) 4160 ; ; dense_3 (Dense) (None, 64) 4160 ; ; dense_4 (Dense) (None, 1) 65 ; ; =================================================================; Total params: 13057 (51.00 KB); Trainable params: 13057 (51.00 KB); Non-trainable params: 0 (0.00 Byte); _________________________________________________________________; Epoch 1/10; ; 1/200 [..............................] - ETA: 3:35 - loss: 0.7076 - accuracy: 0.3800␈␈␈␈␈␈␈␈␈␈␈␈␈␈␈␈␈␈␈␈␈␈␈␈␈␈␈␈␈␈␈␈␈␈␈␈␈␈␈␈␈␈␈␈␈␈␈␈␈␈␈␈␈␈␈␈␈␈
…
