…
[1m================================================================[0m; : ; : Split TMVA training data in 1280 training events and 320 validation events; : Training Model Summary; custom objects for loading model : {'optimizer': <class 'torch.optim.adam.Adam'>, 'criterion': BCELoss(), 'train_func': <function fit at 0x7fe43c5d1b80>, 'predict_func': <function predict at 0x7fe43c5d1ca0>}; Model: ""sequential""; _________________________________________________________________; Layer (type) Output Shape Param # ; =================================================================; reshape (Reshape) (None, 16, 16, 1) 0 ; ; conv2d (Conv2D) (None, 16, 16, 10) 100 ; ; batch_normalization (Batch (None, 16, 16, 10) 40 ; Normalization) ; ; conv2d_1 (Conv2D) (None, 16, 16, 10) 910 ; ; max_pooling2d (MaxPooling2 (None, 15, 15, 10) 0 ; D) ; ; flatten (Flatten) (None, 2250) 0 ; ; dense (Dense) (None, 256) 576256 ; ; dense_1 (Dense) (None, 2) 514 ; ; =================================================================; Total params: 577820 (2.20 MB); Trainable params: 577800 (2.20 MB); N",message,MatchSource.WIKI,root-project,root,v6-32-06,https://root.cern/doc/master/TMVA__CNN__Classification_8C.html:16482,message,16482,doc/master/TMVA__CNN__Classification_8C.html,https://root.cern,https://root.cern/doc/master/TMVA__CNN__Classification_8C.html,1,['message'],['message'],"The ease of combining the system with other systems or components, measured by integration cost and technical risks. Integrability considers the complexity and compatibility of interfaces, including syntactic, semantic, behavioral, and temporal alignment.","
…
