…
ning (but are included for testing and performance evaluation)]; : BatchLayout: ""0|0|0"" [The Layout of the batch]; : ValidationSize: ""20%"" [Part of the training data to use for validation. Specify as 0.2 or 20% to use a fifth of the data set as validation set. Specify as 100 to use exactly 100 events. (Default: 20%)]; : Will now use the CPU architecture with BLAS and IMT support !; Model: ""sequential""; _________________________________________________________________; Layer (type) Output Shape Param # ; =================================================================; reshape (Reshape) (None, 10, 30) 0 ; ; lstm (LSTM) (None, 10, 10) 1640 ; ; flatten (Flatten) (None, 100) 0 ; ; dense (Dense) (None, 64) 6464 ; ; dense_1 (Dense) (None, 2) 130 ; ; =================================================================; Total params: 8234 (32.16 KB); Trainable params: 8234 (32.16 KB); Non-trainable params: 0 (0.00 Byte); _________________________________________________________________; (TString) ""python3""[7]; Factory : Booking method: ␛[1mPyKeras_LSTM␛[0m; : ; : Setting up tf.keras; : Using TensorFlow version 2; : Use Keras version from Te
…
0"" [The Layout of the batch]; : RandomSeed: ""0"" [Random seed used for weight initialization and batch shuffling]; : ValidationSize: ""20%"" [Part of the training data to use for validation. Specify as 0.2 or 20% to use a fifth of the data set as validation set. Specify as 100 to use exactly 100 events. (Default: 20%)]; : Will now use the CPU architecture with BLAS and IMT support !; Model: ""sequential""; _________________________________________________________________; Layer (type) Output Shape Param # ; =================================================================; reshape (Reshape) (None, 16, 16, 1) 0 ; ; conv2d (Conv2D) (None, 16, 16, 10) 100 ; ; batch_normalization (Batch (None, 16, 16, 10) 40 ; Normalization) ; ; conv2d_1 (Conv2D) (None, 16, 16, 10) 910 ; ; max_pooling2d (MaxPooling2 (None, 15, 15, 10) 0 ; D) ; ; flatten (Flatten) (None, 2250) 0 ; ; dense (Dense) (None, 256) 576256 ; ; dense_1 (Dense) (None, 2",MatchSource.WIKI,root-project,root,v6-32-06,https://root.cern/doc/master/TMVA__CNN__Classification_8C.html:7429,validat,validation,7429,doc/master/TMVA__CNN__Classification_8C.html,https://root.cern,https://root.cern/doc/master/TMVA__CNN__Classification_8C.html,1,['validat'],['validation']
Security," minimum found when running for upper error; status = 5 : any other 
…
