…
SetParametervirtual void SetParameter(Int_t param, Double_t value)Definition TF1.h:667; TF2A 2-Dim function with parameters.Definition TF2.h:29; TFileA ROOT file is an on-disk file, usually with extension .root, that stores objects in a file-system-li...Definition TFile.h:53; TFile::Openstatic TFile * Open(c",MatchSource.WIKI,doc/master/TMVA__CNN__Classification_8C.html,root-project,root,v6-32-06,https://root.cern,https://root.cern/doc/master/TMVA__CNN__Classification_8C.html
https://root.cern/doc/master/TMVA__CNN__Classification_8C.html:8781,Deployability,configurat,configuration,8781,"hape) (None, 16, 16, 1) 0 ; ; conv2d (Conv2D) (None, 16, 16, 10) 100 ; ; batch_normalization (Batch (None, 16, 16, 10) 40 ; Normalization) ; ; conv2d_1 (Conv2D) (None, 16, 16, 10) 910 ; ; max_pooling2d (MaxPooling2 (None, 15, 15, 10) 0 ; D) ; ; flatten (Flatten) (None, 2250) 0 ; ; dense (Dense) (None, 256) 576256 ; ; dense_1 (Dense) (None, 2) 514 ; ; =================================================================; Total params: 577820 (2.20 MB); Trainable params: 577800 (2.20 MB); Non-trainable params: 20 (80.00 Byte); _________________________________________________________________; Factory : Booking method: ␛[1mPyKeras␛[0m; : ; : Setting up tf.keras; : Using TensorFlow version 2; : Use Keras version from TensorFlow : tf.keras; : Appl
…
0"" [The Layout of the batch]; : RandomSeed: ""0"" [Random seed used for weight initialization and batch shuffling]; : ValidationSize: ""20%"" [Part of the training data to use for validation. Specify as 0.2 or 20% to use a fifth of the data set as validation set. Specify as 100 to use exactly 100 events. (Default: 20%)]; : Will now use the CPU architecture with BLAS and IMT support !; Model: ""sequential""; _________________________________________________________________; Layer (type) Output Shape Param # ; =================================================================; reshape (Reshape) (None, 16, 16, 1) 0 ; ; conv2d (Conv2D) (None, 16, 16, 10) 100 ; ; batch_normalization (Batch (None, 16, 16, 10) 40 ; Normalization) ; ; conv2d_1 (Conv2D) (None, 16, 16, 10) 910 ; ; max_pooling2d (MaxPooling2 (None, 15, 15, 10) 0 ; D) ; ; flatten (Flatten) (None, 2250) 0 ; ; dense (Dense) (None, 256) 576256 ; ; dense_1 (Dense) (None, 2",MatchSource.WIKI,doc/master/TMVA__CNN__Classification_8C.html,root-project,root,v6-32-06,https://root.cern,https://root.cern/doc/master/TMVA__CNN__Classification_8C.html
https://root.cern/doc/master/TMVA__CNN__Classification_8C.html:9198,Performance,optimiz,optimizer,9198,"=========================; Total params: 577820 (2.20 MB); Trainable params: 577800 (2.20 MB); 
…
1m================================================================␛[0m; : ; : Split TMVA training data in 1280 training events and 320 validation events; : Training Model Summary; custom objects for loading model : {'optimizer': <class 'torch.optim.adam.Adam'>, 'criterion': BCELoss(), 'train_func': <function fit at 0x7fe43c5d1b80>, 'predict_func': <function predict at 0x7fe43c5d1ca0>}; Model: ""sequential""; _________________________________________________________________; Layer (type) Output Shape Param # ; =================================================================; reshape (Reshape) (None, 16, 16, 1) 0 ; ; conv2d (Conv2D) (None, 16, 16, 10) 100 ; ; batch_normalization (Batch (None, 16, 16, 10) 40 ; Normalization) ; ; conv2d_1 (Conv2D) (None, 16, 16, 10) 910 ; ; max_pooling2d (MaxPooling2 (None, 15, 15, 10) 0 ; D) ; ; flatten (Flatten) (None, 2250) 0 ; ; dense (Dense) (No",MatchSource.WIKI,doc/master/TMVA__CNN__Classification_8C.html,root-project,root,v6-32-06,https://root.cern,https://root.cern/doc/master/TMVA__CNN__Classification_8C.html
https://root.cern/doc/master/TMVA__CNN__Classification_8C.html:16736,Performance,load,loading,16736,": 0.629 sec ; : Creating xml weight file: ␛[0;36mdataset/weights/TMVA_CNN_Classification_TMVA_CNN_CPU.wei
…
1m================================================================␛[0m; : ; : Split TMVA training data in 1280 training events and 320 validation events; : Training Model Summary; custom objects for loading model : {'optimizer': <class 'torch.optim.adam.Adam'>, 'criterion': BCELoss(), 'train_func': <function fit at 0x7fe43c5d1b80>, 'predict_func': <function predict at 0x7fe43c5d1ca0>}; Model: ""sequential""; _________________________________________________________________; Layer (type) Output Shape Param # ; =================================================================; reshape (Reshape) (None, 16, 16, 1) 0 ; ; conv2d (Conv2D) (None, 16, 16, 10) 100 ; ; batch_normalization (Batch (None, 16, 16, 10) 40 ; Normalization) ; ; conv2d_1 (Conv2D) (None, 16, 16, 10) 910 ; ; max_pooling2d (MaxPooling2 (None, 15, 15, 10) 0 ; D) ; ; flatten (Flatten) (None, 2250) 0 ; ; dense (Dense) (None, 256) 576256 ; ; dense_1 (Dense) (None, 2) 514 ; ; =================================================================; Total params: 577820 (2.20 MB); Trainable params: 577800 (2.20 MB); N",MatchSource.WIKI,doc/master/TMVA__CNN__Classification_8C.html,root-project,root,v6-32-06,https://root.cern,https://root.cern/doc/master/TMVA__CNN__Classification_8C.html
https://root.cern/doc/master/TMVA__CNN__Classification_8C.html:17779,Security,validat,validation,17779,"ing model : {'optimizer': <class 'torch.optim.adam.Adam'>, 'criterion': BCELoss(), 'train_func': <function fit at 0x7fe43c5d1b80>, 'predict_func': <function predict at 0x7fe43c5d1ca0>}; Model: ""sequential""; _________________________________________________________________; Layer (type) Output Shape Param # ; =================================================================; reshape (Reshape) (None, 16, 16, 1) 0 ; ; conv2d (Conv2D) (None, 16, 16, 10) 100 ; ; batch_normalization (Batch (None, 16, 16, 10) 40 ; Normalization) ; ; conv2d_1 (Conv2D) (None, 16, 16, 10) 910 ; ; max_pooling2d (MaxPooling2 (None, 15, 15, 10) 0 ; D) ; ; flatten (Flatten) (None, 2250) 0 ; ; dense (Dense) (None, 256) 576256 ; ; dense_1 (Dense) (None, 2) 514 ; ; =================================================================; Total params: 577820 (2.20 MB); Trainable params: 577800 (2.20 MB); Non-trainable params: 20 (80.00 Byte); _________________________________________________________________; : Option SaveBestOnly: Only model weights with smallest validation loss will be stored; Epoch 1/10; ; 1/13 [=>............................] - ETA: 10s - l
…
 this Keras; : interface, you have to generate a model with Keras first. Then,; : this model can be loaded and trained in TMVA.; : ; : ; : <Suppress this message by specifying ""!H"" in the booking option>; : ␛[1m================================================================␛[0m; : ; : Split TMVA training data in 11200 training events and 2800 validation events; : Training Model Summary; Model: ""sequential""; _________________________________________________________________; Layer (type) Output Shape Param # ; =================================================================; dense (Dense) (None, 64) 512 ; ; dense_1 (Dense) (None, 64) 4160 ; ; dense_2 (Dense) (None, 64) 4160 ; ; dense_3 (Dense) (None, 64) 4160 ; ; dense_4 (Dense) (None, 2) 130 ; ; =================================================================; Total params: 13122 (51.26 KB); Trainable params: 13122 (51.26 KB); Non-trai",MatchSource.WIKI,doc/master/TMVA__Higgs__Classification_8C.html,root-project,root,v6-32-06,https://root.cern,https://root.cern/doc/master/TMVA__Higgs__Classification_8C.html
https://root.cern/doc/master/TMVA__Higgs__Classification_8C.html:27135,Integ
…
-> Output : variable 'm_jjj'; : Input : variable 'm_lv' <---> Output : variable 'm_lv'; : Input : variable 'm_jlv' <---> Output : variable 'm_jlv'; : Input : variable 'm_bb' <---> Output : variable 'm_bb'; : Input : variable 'm_wbb' <---> Output : variable 'm_wbb'; : Input : variable 'm_wwbb' <---> Output : variable 'm_wwbb'; : Will now use the CPU architecture with BLAS and IMT support !; Model: ""sequential""; _________________________________________________________________; Layer (type) Output Shape Param # ; =================================================================; dense (Dense) (None, 64) 512 ; ; dense_1 (Dense) (None, 64) 4160 ; ; dense_2 (Dense) (None, 64) 4160 ; ; dense_3 (Dense) (None, 64) 4160 ; ; dense_4 (Dense) (None, 2) 130 ; ; =================================================================; Total params: 13122 (51.26 KB); Trainable params: 13122 (51.26 KB); Non-trainable params: 0 (0.00 Byte); _________________________________________________________________; (TString) ""python3""[7]; Factory : Booking method: ␛[1mPyKeras␛[0m; : ; : Setting up tf.keras; : Using TensorFlow version 2; : Use Keras version from TensorFlow : tf.keras; : Applying GPU option: gpu_options.allow_growth=True; : Loading Keras Model ; : Loaded model from file: Higgs_model.h5; Factory : ␛[1mTrain all methods␛[0m; Factory : [dataset] : Create Tr",MatchSource.WIKI,doc/master/TMVA__Higgs__Classification_8C.html,root-project,root,v6-32-06,https://root.cern,https://root.cern/doc/master/TMVA__Higgs__Classification_8C.html
https://root.cern/doc/master/TMVA__Higgs__Classification_8C.html:14881,Modifiability,variab,variable,14881,"(Dense) (None, 64) 4160 ; ; dense_4 (Dense) (None, 2) 130 ; ; =================================================================; Total params: 13122 (51.26 KB); Trainable params: 13122 (51.26 KB); Non-trainable params: 0 (0.00 Byte); _________________________________________________________________; (TString) ""python3""[7]; Factory : Booking method: ␛[1mPyKeras␛[0m; : ; : Setting up tf.keras; : Using TensorFlow version 2; : Use Keras version from Tenso
…
ning (but are included for testing and performance evaluation)]; : BatchLayout: ""0|0|0"" [The Layout of the batch]; : ValidationSize: ""20%"" [Part of the training data to use for validation. Specify as 0.2 or 20% to use a fifth of the data set as validation set. Specify as 100 to use exactly 100 events. (Default: 20%)]; : Will now use the CPU architecture with BLAS and IMT support !; Model: ""sequential""; _________________________________________________________________; Layer (type) Output Shape Param # ; =================================================================; reshape (Reshape) (None, 10, 30) 0 ; ; lstm (LSTM) (None, 10, 10) 1640 ; ; flatten (Flatten) (None, 100) 0 ; ; dense (Dense) (None, 64) 6464 ; ; dense_1 (Dense) (None, 2) 130 ; ; =================================================================; Total params: 8234 (32.16 KB); Trainable params: 8234 (32.16 KB); Non-trainable params: 0 (0.00 Byte); ________________________________________________",MatchSource.WIKI,doc/master/TMVA__RNN__Classification_8C.html,root-project,root,v6-32-06,https://root.cern,https://root.cern/doc/master/TMVA__RNN__Classification_8C.html
https
…
