…
 first. Then,; : this model can be loaded and trained in TMVA.; : ; : ; : <Suppress this message by specifying ""!H"" in the booking option>; : ␛[1m================================================================␛[0m; : ; : Split TMVA training data in 2560 training events and 640 validation events; : Training Model Summary; saved recurrent model model_LSTM.h5; Booking Keras model LSTM; Model: ""sequential""; _________________________________________________________________; Layer (type) Output Shape Param # ; =================================================================; reshape (Reshape) (None, 10, 30) 0 ; ; lstm (LSTM) (None, 10, 10) 1640 ; ; flatten (Flatten) (None, 100) 0 ; ; dense (Dense) (None, 64) 6464 ; ; dense_1 (Dense) (None, 2) 130 ; ; =================================================================; Total params: 8234 (32.16 KB); Trainable params: 8234 (32.16 KB); Non-trainable params: 0 (0.00 Byte); _________________________________________________________________; : Option SaveBestOnly: Only model weights",MatchSource.WIKI,doc/master/TMVA__RNN__Classification_8py.html,root-project,root,v6-32-06,https://root.cern,https://root.cern/doc/master/TMVA__RNN__Classification_8py.html
…
or(ROOT.kRed); curve1.Draw(""AC""); ; r2,curve2 = MakeROCCurve(hs2,hb2); curve2.SetLineColor(ROOT.kBlue); curve2.Draw(""C""); ; r3,curve3 = MakeROCCurve(hs3,hb3); curve3.SetLineColor(ROOT.kGreen); curve3.Draw(""C""); ; c2.Draw(); ROOT::RDataFrameROOT's RDataFrame offers a modern, high-level interface for analysis of data stored in TTree ,...Definition RDataFrame.hxx:41; size of data 10000; Model: ""sequential""; _________________________________________________________________; Layer (type) Output Shape Param # ; =================================================================; dense (Dense) (None, 64) 512 ; ; dense_1 (Dense) (None, 64) 4160 ; ; dense_2 (Dense) (None, 64) 4160 ; ; dense_3 (Dense) (None, 64) 4160 ; ; dense_4 (Dense) (None, 1) 65 ; ; =================================================================; Total params: 13057 (51.00 KB); Trainable params: 13057 (51.00 KB); Non-trainable params: 0 (0.00 Byte); _________________________________________________________________; Epoch 1/10; ; 1/200 [..............................] - ETA: 3:35 - loss: 0.7076 - accuracy: 0.3800␈␈␈␈␈␈␈␈␈␈␈␈␈␈␈␈␈␈␈␈␈␈␈␈␈␈␈␈␈␈␈␈␈␈␈␈␈␈␈␈␈␈␈␈␈␈␈␈␈␈␈␈␈␈␈␈␈␈␈␈␈␈␈␈␈␈␈␈␈␈␈␈␈␈␈␈␈␈␈␈␈␈␈␈␈␈; 19/200 [=>............................] - ETA: 0s - loss: 0.6900 - accuracy: 0.5526 ␈␈␈␈␈␈␈␈␈␈␈␈␈␈␈",MatchSource.WIKI,doc/master/TMVA__SOFIE__Models_8py.html,root-project,root,v6-32-06,https://root.cern,https://root.cern/doc/master/TMVA__SOFIE__Models_8py.html
…
