…
 first. Then,; : this model can be loaded and trained in TMVA.; : ; : ; : <Suppress this message by specifying ""!H"" in the booking option>; : ␛[1m================================================================␛[0m; : ; : Split TMVA training data in 2560 training events and 640 validation events; : Training Model Summary; saved recurrent model model_LSTM.h5; Booking Keras model LSTM; Model: ""sequential""; _________________________________________________________________; Layer (type) Output Shape Param # ; =================================================================; reshape (Reshape) (None, 10, 30) 0 ; ; lstm (LSTM) (None, 10, 10) 1640 ; ; flatten (Flatten) (None, 100) 0 ; ; dense (Dense) (None, 64) 6464 ; ; dense_1 (Dense) (None, 2) 130 ; ; =================================================================; Total param",predict,MatchSource.WIKI,root-project,root,v6-32-06,https://root.cern/doc/master/TMVA__RNN__Classification_8py.html:20594,predictions,20594,doc/master/TMVA__RNN__Classification_8py.html,https://root.cern,https://root.cern/doc/master/TMVA__RNN__Classification_8py.html,1,['predict'],['predictions'],"The system’s ability to avoid states that could lead to harm or damage. Safety encompasses detection and handling of errors (e.g., omissions, timing, incorrect values) to prevent hazardous outcomes or mitigate potential damage.","
…
